xray_model.pth (torch, 67893 bytes, 56 tensors)

convolution_block1.0.weight f4 [8, 3, 3, 3]
00000000: 397b 9a3d f957 14be d59a 94bd be53 6dbd
00000010: 5cc5 143c ba87 3f3e ac2c 2e3e 778d 283d
00000020: 26c3 263e 0f99 253e 46b8 aebd 54e6 603d
00000030: e0ef 303e 7bbb cdbd 560c edbb edfa b83d
00000040: e02e d43d 286e b9bc e427 b3bc 3621 a73d
00000050: cad4 443e da39 9a3d 1b01 343e 2d45 0eba
00000060: 0f64 493e 73a7 61bc 0f56 7c3d 4ce9 27be
00000070: bcaf 1ebd f34f 2dbd fe8b 66be eb8c 7d3c
00000080: c3a9 c9bb bd9f 1abd 9a75 5fbe ffa1 c038
00000090: 3a2e c93d f8ef b2bd c594 523d 6f25 f73d
000000a0: 7fbf 2e3d 0a43 71bd 6d7c 89bb b116 3bbe
000000b0: 53c3 65be 38e5 79be 6a02 c03d 6c04 83be
000000c0: 1465 373d 4549 febb 3e2f 0abe a352 b13d
000000d0: 6623 c13d 31f9 50be f2c7 8ebc 7c82 dc3c
000000e0: 7909 4cbe da97 aabd 0489 72be 6441 d23d
000000f0: d1e9 4f3d d944 4ebe 148b 69be dd12 3fbe
00000100: d6cc 9dbd 8841 69be ee00 463d 2ba1 533d
00000110: 3a95 ca3c 4c89 91bd 7e47 fa3c ad26 71be
00000120: eaec c0bb a7af c13c 426b 9b3d 07a4 0cbe
00000130: 5935 eebd d0a0 953d 2f84 33be c33d 7abe
00000140: e60c 68be 7839 54be 2321 cabd 9cb4 0c3a
00000150: 9223 a2bd af6a 32bd 5681 cabd 1ffa 6cbd
00000160: 8a04 b5bd 1ff7 083e c8be 1f3e 8a71 eebd
00000170: bc9a 9c3c ec8d b23d bf64 4a3b 975f 27be
00000180: 5178 c83d 697a 8c3d 0c4c d5bd a61b f03b
00000190: 6a06 7a3d 44fb cf3d 2283 08be 8056 b03c
000001a0: 6df5 e13d 7a2e 5abe 3ebf 193e 4785 77bd
000001b0: 5531 18bd 7eda 34bc b791 16be 870a 02be
000001c0: 2e99 41bd 6eef e2bd dc33 113e 9187 4dbe
000001d0: 439e c93d 45aa 07be 25f4 743c 5914 2f3d
000001e0: 02e3 0fbe 253f 973c 80d3 c73d e1ac dc3d
000001f0: 88ae f6bd f313 f2bd 9968 2fbd 6372 47bc
00000200: 7c28 17bd 4365 053e 2c55 f33d 46d4 0ebe
00000210: 8d75 a8bd a52b d73c ad52 3bbe e305 93be
00000220: f2bd 883d 2389 91be 05ea 14be 260b bebc
00000230: b9d2 52be 45a9 acbd 7440 723c 7c53 96be
00000240: 37dc 3fbe 0530 113d e5c8 a3be 17fc c43d
00000250: dd4b 223d 11f5 debd 7d12 8abe bd1b 92bd
00000260: 4e21 51bc 49a0 a4bc 8926 803d 3847 63be
00000270: ed90 10be 2e42 0e3d 8d70 05be 7942 113c
00000280: c7e4 313d cffb 87bd 110e 3c3d c3f0 6d3d
00000290: 8c59 d3bd 314c cdbd 6283 9a3d 8769 de3d
000002a0: c943 873d 1bb8 39be ed49 2d3e a317 ecbd
000002b0: 7871 1fbe 21ba 25be 04bb c2bd 4662 19be
000002c0: 496a cabd 5298 2f3d 629c 0d3e aff3 133d
000002d0: 1a26 4cbe bf0c 77bd 0e00 e6bc 41e1 703d
000002e0: a4c1 73bd 193e 293e 4994 5ebe 9038 4dbe
000002f0: cbbf 183e c50f 0ebe 40bc acbd ff45 7fbe
00000300: c7e4 a0be e0c5 5dbe bfaa a3be df3f 53be
00000310: 9d5f 21be 1020 3cbe 663d adbe f7ae c0be
00000320: f98a cbbe 6d24 83bd a3f0 cebe 1586 8bbe
00000330: 0443 17be 9ce4 03be d5dc 61be 57b7 75be
00000340: b0d9 04bf 90bd 85be 5d45 05bf b270 c0be
00000350: 3f8c 5cbe 7326 acbe 9d4c 0dbf 0035 87be
0.07543034 -0.14486684 -0.07256094 -0.05794119 0.009080257 0.1870412 0.17009228 0.041150536
0.1628538 0.16171668 -0.08531241 0.054907158 0.17279005 -0.10045525 -0.0072341366 0.09032235
0.10360503 -0.022635534 -0.021869607 0.08160631 0.19221798 0.075305656 0.17578547 -0.0005427178
0.19667076 -0.013772833 0.06160551 -0.1639759 -0.038741812 -0.042312574 -0.2251434 0.015475492
-0.0061542704 -0.037749995 -0.21822205 9.1854476e-05 0.0982327 -0.08737177 0.05141141 0.12067687
0.042663094 -0.058901824 -0.004195741 -0.18270375 -0.22437792 -0.24403846 0.093754604 -0.2558931
0.04477413 -0.0077601993 -0.13494584 0.0865834 0.0943058 -0.20407559 -0.017429326 0.026917689
-0.19925489 -0.08329745 -0.2368508 0.102663785 0.050760094 -0.20143451 -0.2280696 -0.1865954
-0.07705085 -0.22778904 0.04834073 0.051667374 0.02472936 -0.071062654 0.030551668 -0.2354991
-0.0058876174 0.023643328 0.07588817 -0.13734446 -0.11631269 0.07306063 -0.17530893 -0.24437623
-0.2266117 -0.20725048 -0.098696016 0.0005367489 -0.07916941 -0.043558773 -0.0988795 -0.05785572
-0.088387564 0.13375519 0.15600121 -0.116427496 0.019116752 0.08718476 0.0030882803 -0.16345058
0.097885735 0.068592854 -0.104148954 0.0073275147 0.061041273 0.10155347 -0.13331273 0.021525621
0.110331394 -0.21306792 0.1501436 -0.060429838 -0.03715642 -0.011038421 -0.14704023 -0.12699328
-0.047265224 -0.11080824 0.14179939 -0.20071246 0.09844639 -0.13248546 0.014950787 0.042744014
-0.1405144 0.018462727 0.09757137 0.107751615 -0.12045008 -0.11820211 -0.04282436 -0.012173268
-0.036903843 0.1302691 0.118814796 -0.13948163 -0.08225546 0.026265929 -0.18293257 -0.2871543
0.06676854 -0.2842494 -0.14542396 -0.023198675 -0.20588197 -0.08430723 0.014785875 -0.2936057
-0.18736349 0.035446186 -0.31989208 0.09618395 0.03962313 -0.108865865 -0.2696723 -0.07134197
-0.012764288 -0.020095961 0.0625735 -0.22195137 -0.14117785 0.034731083 -0.13031216 0.008865946
0.04343107 -0.066398256 0.045911852 0.058090936 -0.10319814 -0.10024298 0.075445905 0.108599715
0.06604726 -0.18136637 0.16922732 -0.11527946 -0.15570629 -0.16184284 -0.09508327 -0.14978895
-0.098835535 0.042869873 0.13829187 0.036121067 -0.1993641 -0.06031489 -0.028076198 0.05880857
-0.059510842 0.16527595 -0.21736254 -0.20041108 0.14916913 -0.13873203 -0.08434343 -0.24929045
-0.31424543 -0.21657515 -0.31966206 -0.20629834 -0.1575913 -0.18371606 -0.33835906 -0.37633488
-0.39754465 -0.06403432 -0.40417966 -0.27250734 -0.14771658 -0.12880176 -0.22056897 -0.2399572
-0.51894665 -0.26121187 -0.52058965 -0.3758598 -0.21537875 -0.33623084 -0.5519503 -0.26407623

convolution_block1.0.bias f4 [8]
00000000: 28e2 0dbe 9509 a03d 01d0 e0ba c609 02be
00000010: e4d4 8dbd 3775 243e 95d2 c8bb 2d20 24bf
-0.13855803 0.078143276 -0.0017151834 -0.12699041 -0.06925371 0.16060339 -0.006128619 -0.64111596

convolution_block1.2.weight f4 [8]
00000000: da0a 803f b5d3 843f fe83 823f 8441 793f
00000010: b4b6 823f c451 773f b946 833f e560 753f
1.0003312 1.0377108 1.0196531 0.97365594 1.0212007 0.9660914 1.0255958 0.95850974

convolution_block1.2.bias f4 [8]
00000000: ed71 f23d b266 adbd 86b0 06bd 7c23 4abd
00000010: d26b cabc d9ca 013d 7c34 3ebd 9c08 663d
0.11838136 -0.08466853 -0.03288319 -0.049350247 -0.024709616 0.03168759 -0.04643677 0.056160554

convolution_block1.2.running_mean f4 [8]
00000000: b2b3 583f f716 ae3e db4e e73e 3df7 a83d
00000010: f087 333e 3e11 1c3f 107b 1b3e 954e a83f
0.84649193 0.34001896 0.4517735 0.08250282 0.17532325 0.6096381 0.15183663 1.3148981

convolution_block1.2.running_var f4 [8]
00000000: 35d9 0d3f 87bd e53e b61e 5f3f 142b 083d
00000010: 5a3e 0f3e cd82 aa3f f3a1 f13d 9582 0e41
0.55409557 0.4487116 0.87156236 0.033244208 0.13988629 1.3321167 0.117984675 8.90688

convolution_block2.0.weight f4 [20, 8, 3, 3]
00000000: 3390 d03d 5458 31bc 5256 0ebd 6f1d bf3d
00000010: b642 623b a474 babd d4f4 a13c 401f d53d
00000020: 328d 9a3d e7cf 833c 25d3 26bd dacd f5bd
00000030: 513c 1bbd 55ac 23bd 348b 3fbd 9f51 14bc
00000040: 2c35 f4bc ae14 763c 00cb c0bd 7de8 12be
00000050: 5f8e c2bd 94e0 a73d 735b b93d 1859 5e3d
00000060: 3f74 2e3d 407c e9bc fd2c 6cbd 0748 a53d
00000070: 2649 4ebd 8e02 1bbd e8fc 95bd bc04 d63d
00000080: a017 b5bd 4ec6 90bd 5b28 853d 9ed6 8a3d
00000090: 4384 b63d 33b1 92bd 0e1c de3c aee7 6cbd
000000a0: 16d0 5fbc e888 073d 54de 9f3b 2a97 85bd
000000b0: 9ce6 cc3b 6b2b 0ebd e6ab 26bc 839e 0fbe
000000c0: 7e5b 08be 12a2 ac3d 5448 a7bd b316 09be
000000d0: d1d6 88bc 314e fcbd 609c a73d e910 9ebd
000000e0: 3666 dabd 2769 adbd ae55 9b3d ece2 cfbb
000000f0: bdcb 923d 4825 9ebd 99fc 7f3c 2ee0 473d
00000100: 6c25 163d c2f2 08be a1fa 0f3d 8edf ffbd
00000110: 5157 9dbd 8531 07be c296 bf3d 6113 02be
00000120: e74a 97bd 6489 473d ee4f 8f3d 4ee5 773d
00000130: 2a51 993d 70e4 013e e0b2 363d bf80 cdbd
00000140: 814a cabd ff9a 9dbd 1b60 c13d c9ff f73d
00000150: 1ee3 ddbd 1d87 233d 1dc0 e63d d1b6 d9bd
00000160: 4a22 bd3d d7bb cd3d 1302 5b3d ead9 1fbd
00000170: ac06 313d 326f a33d 4f5a 9abc 4107 dbbd
00000180: 943c 80bd 831a dd3d 661d 8fbd f730 56bd
00000190: a54e 6bbc bdbb c7bd 6ea8 a43d 50aa 5bbd
000001a0: f9af c9bc a11a 4e3d df19 c5bd f4e0 243d
000001b0: 6ffc 963b 7f3e 563c 4367 d2bb d22c 703d
000001c0: 9f22 dc3d dc49 8bbc 613d b53d c2b2 f5bb
000001d0: f01d 7c3d 9f24 c1bd 05dc 9c3d f5de 83bc
000001e0: 44b4 ff3d bf3f 563d 0b04 063e 2a8d 34bc
000001f0: 9b15 e73d 0b19 7c3d 306e 97bd 67a7 143d
00000200: 5f84 acbd 75b0 e6bc e489 b8bd 22c5 c43d
00000210: 8599 31bc e285 6f3d df51 0abd 4f1c 10bc
00000220: 89d8 aebd 6311 bd3d 5451 b3bd 4c73 e93c
00000230: d47b d63b e717 4a3d d58d ac3d 6f9b dd3d
00000240: 9b2b 613b c39e 993d 2ce4 ab39 d01e 033e
00000250: 9d90 183e 861b 2c3e ded8 7fbb 7e0d 33bd
00000260: b8de 033d cab9 0abe 61e0 973d 5dbd 533c
00000270: 1424 f0bd 9ae9 e4bd a551 e5bd 0663 0cbd
00000280: 3db1 af3d d6bb 663d ec38 02be 91cc dbbd
00000290: 58fe 48bd dc95 073d 7b5c 68bd 161e 633c
000002a0: 4837 0bbe 2fa0 a13d 8b9c ef3b a640 9a3d
000002b0: 5f2a 19bd 235f bcbc 98f7 aa3c 16c6 91bd
000002c0: fbc8 67bd 45fe 23bd 3077 893b 697c 40bd
000002d0: a9f3 403d a69d 7b3d 5533 f6bd 2049 d8bd
000002e0: b577 483d 3a0a d53a c03c 023b 3ba8 edbd
000002f0: 73c5 73bc cc02 e43d 9856 c93d 0aa6 a8bd
00000300: f059 07bd f4db f73d a546 0f3e 5bd9 4ebd
00000310: eedb 25bd 65ec aa3d 62aa e9bc 5d84 13bc
00000320: cc88 c6bc 700d cbbd b037 b2bd 728b 72bd
00000330: 07be 453b 0f12 2d3d 705f a53d fde1 03bd
00000340: afff bbbd 9a86 b53c 2454 c93c 3324 003d
00000350: cc10 983d 2755 b43c c7af 613d db65 e3bd
00000360: 8f8e d5bd 3101 da3d be6d efbd 9964 65bd
00000370: 5a36 90bd f90d 43bd dd60 c03d 5dff 703a
00000380: e004 c63d adf4 9b3d ee3c 953c 8665 973d
00000390: 6cd0 4abd c6bc e03d 17db 873d cc2f e9bd
000003a0: 76ea 2cbd cffc d53d fc22 09bc 2177 233d
000003b0: c84c ee3d 31f9 b2bd f00b a73d 6d17 ea3d
000003c0: 7ece c73d e37a 953d c0fb 1c3d a93a b3bd
000003d0: 6a1c f33d 742e c7bd b3ca 7dbc d9f8 b73d
000003e0: 2103 c43d 77bc 763d 9230 25bd 9329 01bd
000003f0: e822 eb3c 9af5 a0bd aac6 983d d92f 883d
0.10183754 -0.010824282 -0.03475029 0.09331786 0.0034524626 -0.09104279 0.019770063 0.10406351
0.07546462 0.016090347 -0.040728707 -0.12002154 -0.03789932 -0.03995927 -0.046763614 -0.009052663
-0.02981051 0.015019579 -0.09413719 -0.143465 -0.094998114 0.08197132 0.09050646 0.054284185
0.04259133 -0.02850163 -0.05766009 0.08070379 -0.05036273 -0.037844233 -0.07323629 0.10450122
-0.08842397 -0.070690736 0.06501838 0.06779216 0.08911946 -0.07162704 0.027112987 -0.057838134
-0.013660451 0.03308955 0.0048787985 -0.06522973 0.0062530767 -0.034709375 -0.01017282 -0.14025311
-0.13316151 0.0842935 -0.08168092 -0.13387565 -0.016703995 -0.12319601 0.08184123 -0.07718069
-0.106640264 -0.08467322 0.075847015 -0.00634419 0.07167766 -0.077219546 0.015624189 0.04879778
0.036656782 -0.13373855 0.035151128 -0.124938115 -0.0768267 -0.13202484 0.09354927 -0.12702705
-0.07387333 0.04871501 0.06997667 0.060521416 0.07486184 0.12684798 0.044604182 -0.10034322
-0.09877492 -0.07695579 0.09442159 0.12109334 -0.10834335 0.039923776 0.112671115 -0.106305726
0.09235056 0.10045593 0.053468775 -0.03902618 0.043219253 0.07980193 -0.01884189 -0.10694743
-0.06261554 0.10796072 -0.06988029 -0.05229279 -0.014362012 -0.09752605 0.08039938 -0.05362922
-0.024620043 0.050318364 -0.09624075 0.040253595 0.004607729 0.013076424 -0.006421001 0.058636494
0.10748791 -0.017002992 0.08849598 -0.007498116 0.061551988 -0.09430813 0.07659153 -0.016097525
0.12485555 0.052306887 0.1308748 -0.011019984 0.11283418 0.06154732 -0.073940635 0.03629246
-0.08423685 -0.028160313 -0.090106755 0.096079126 -0.010839825 0.05847729 -0.033769485 -0.008795812
-0.085373946 0.09231832 -0.087557465 0.02849736 0.006545523 0.0493392 0.0842549 0.10820662
0.0034358266 0.075009845 0.00032785663 0.12804723 0.14898916 0.16807374 -0.0039039175 -0.04371404
0.032194823 -0.13547435 0.07415844 0.012923566 -0.11725631 -0.111773685 -0.11197213 -0.034274124
0.085787274 0.056331478 -0.12717026 -0.10732377 -0.049070686 0.0331019 -0.05672882 0.0138621535
-0.13595307 0.07891881 0.0073123625 0.07531862 -0.037393924 -0.022994583 0.020870015 -0.0711786
-0.056588154 -0.040037412 0.0041951165 -0.046993647 0.047107372 0.061429642 -0.120215096 -0.105608225
0.048942287 0.0016253658 0.0019872636 -0.11604353 -0.0148786185 0.11133346 0.098309696 -0.082347944
-0.033044755 0.121024996 0.13991793 -0.050500255 -0.040492944 0.0834587 -0.028523628 -0.009003726
-0.024235152 -0.099146724 -0.08702028 -0.059215017 0.003017308 0.04225355 0.08074844 -0.03219794
-0.09179627 0.02215891 0.024576254 0.031284522 0.07425079 0.02201326 0.055099275 -0.11103412
-0.104275815 0.106447585 -0.116908535 -0.05600414 -0.07041617 -0.047620747 0.09393475 0.00091933255
0.096688986 0.076150276 0.01821753 0.07392411 -0.049515173 0.10973506 0.06633585 -0.1138607
-0.042215787 0.1044861 -0.008370157 0.039908532 0.116357386 -0.08738936 0.08156574 0.11430249
0.09756182 0.072988294 0.038326025 -0.08751423 0.11870654 -0.09725657 -0.015490222 0.08983011
0.09570909 0.060238328 -0.040329523 -0.03153379 0.028703168 -0.07859345 0.07459767 0.06649751

convolution_block2.0.bias f4 [20]
00000000: b5d3 ea3d cdcd c3bd 8047 9dbd 46ee bc3d
00000010: bcb3 acbd 8c5d 113d 20bf 3e3e d6b9 373d
00000020: 403c db3d 2781 f93d 9e59 cf3c 60b4 e53c
00000030: f092 d8bc d32e a0bd 41ec b8bd 61bd 433d
00000040: 6889 3fbd e2e5 af3d b6a4 5abc 9986 dc3d
0.11466161 -0.09560738 -0.07679653 0.092251346 -0.08432719 0.035489604 0.18627596 0.04485496
0.10704851 0.12182837 0.025311287 0.028040111 -0.026437253 -0.07821431 -0.09029437 0.047788028
-0.0467619 0.085887685 -0.013344934 0.1076786

convolution_block2.2.weight f4 [20]
00000000: 2ad7 743f d24e 733f fdaf 823f cd38 813f
00000010: 0135 823f 9b32 7e3f 4659 813f 32fe 7f3f
00000020: 0cd5 723f f8ce 813f b38a 803f a1e1 853f
00000030: bace 813f c2a0 813f 1691 843f 4894 7a3f
00000040: 69f0 7d3f 3553 823f c79b 7c3f 9894 813f
0.95640814 0.95042145 1.0209957 1.0095459 1.0172426 0.9929597 1.0105369 0.99997246
0.94856334 1.0141287 1.0042328 1.0459481 1.0141213 1.0127184 1.0356777 0.9788251
0.9919496 1.0181643 0.986752 1.0123472

convolution_block2.2.bias f4 [20]
00000000: 5056 503a c953 87bc 26f8 aabb ac7c ecbc
00000010: fef6 42bc 226b 94bc b62a e4bb 61f0 cc3b
00000020: d3e3 50bc e19a ec3c 3910 31bc 0e4c 4fbc
00000030: 8259 873c 4867 883c e89b a1bb 75fa d53c
00000040: 8fa9 703b eee3 593c f9e9 1fbc a203 8b3a
0.0007947432 -0.016519444 -0.00521757 -0.028868042 -0.011899708 -0.018117491 -0.0069630994 0.0062542413
-0.01274963 0.028882446 -0.01080709 -0.01265241 0.016522173 0.01665081 -0.0049319156 0.026120404
0.0036722159 0.013298972 -0.009760373 0.0010605941

convolution_block2.2.running_mean f4 [20]
00000000: 256f 293f 0e98 6c3e e193 f23e ef4d e93e
00000010: 85e3 073f d01c 8d3e 758a 053f 21c7 a53e
00000020: ff3e f83e 2c51 173f 7665 803e 56a2 f43e
00000030: da76 263f cdf1 053f 7ce8 163f 16f9 2f3f
00000040: 9bd2 4f3e 5c8e 4c3f a0cb 4c3e ccc7 853e
0.6618522 0.2310488 0.47378448 0.4556727 0.5308154 0.27561045 0.52164394 0.32378486
0.48485562 0.59108233 0.2507741 0.47780102 0.65025103 0.52322084 0.58948493 0.6873945
0.20295183 0.79904723 0.19999552 0.26128995

convolution_block2.2.running_var f4 [20]
00000000: a20b 8d3e b9bc d53e 4590 723e 084b 9e3f
00000010: fcab 823e 0dd5 aa3e b285 073e 6e16 3d3e
00000020: 7b1b 4c3e f13c 1f3e 0843 e03d 4aa7 cc3f
00000030: 0872 d43e 3240 983e f693 1740 cbbe 813e
00000040: b91e d13d e66d e73e 4238 b73d cddd f03d
0.27547938 0.41745546 0.23687847 1.2366648 0.2552184 0.3336567 0.13234594 0.18465587
0.19932358 0.15550591 0.10950285 1.5988553 0.4149325 0.29736477 2.3684058 0.25340876
0.10210938 0.45201033 0.08946277 0.11761055

convolution_block3.0.weight f4 [10, 20, 1, 1]
00000000: 0c1f c43d eafe 3d3e 538e 8a3d cee7 2e3e
00000010: 2f45 383e 1a4c 6e3d 7f76 c0bd 4604 1abe
00000020: fa71 c0bd 6f8e dbbd 9d88 be3d 102d 843e
00000030: 5e97 54be e495 12be f3ed efbc 1d26 18be
00000040: e7a1 03be ed16 09bd 858c dd3d 391b b8bd
00000050: 81f1 b03d 1bbc 513d 3d40 b53d d3ff c3bd
00000060: 2a15 553d 7b60 11be d9cf 99be 509d 8fbe
00000070: f810 37be e534 07bd c610 70bd a47d 3dbe
00000080: 912f 143e 9d03 2b3d 0424 e0bc e20b 45bd
00000090: ebd6 b8bd 9ccd 223d 3a85 d23b a030 83be
000000a0: c4e5 12be b100 5dbe 0691 e9bc eb9a 70be
000000b0: fee8 da3d f5fb d0bd bfc1 d3bd c662 acbc
000000c0: 5971 283c 06e3 743e 8cc0 01be 8545 983d
000000d0: 31ce 243e eb42 543e 6f1a 89bd 4cf3 df3d
000000e0: 1a8f 0cbd 6002 033e a544 81bd c2a0 923d
000000f0: 63ea 863d e116 76bd 90da a4bc 9066 8a3d
00000100: 14c4 0fbe ec76 823d 23b3 1d3e 56de 2a3e
00000110: 537a ac3d adce 73be 18e5 6dbc 25c1 4dbe
00000120: 44f5 4dbe 9583 873d ebee abbd 5d1a 303e
00000130: 99e7 aabc f95c c03d fd80 683e 314f 1c3e
00000140: b83b 1cbd 5426 37be 91bd 8abd 398b f43d
00000150: a817 453e 676a 91ba 0629 e43d 0451 40be
00000160: 39ea dd3d a833 2ebe 6b23 40be 8ac8 20be
00000170: 55e9 193e d7df 103e 7ebb 273e e71b e2bd
00000180: 0ef9 62be f266 80bc de4f 2d3e 7acf 193e
00000190: 3598 6abe 9ba5 b4bd cf5a d63d b3f9 1b3e
000001a0: e5d2 abbd 92b3 223e b1ea 10be 8c03 f4bd
000001b0: e772 493e de84 c93d a7af 82be d961 fc3c
000001c0: 80a8 2d3e 48a3 e4bd 0f0e 863d 8c49 0b3e
000001d0: 968a 563e f17e 90bd 1797 99bd 86e8 023e
000001e0: 4b12 093d 714e 8b3d 63e6 3b3e 81f2 e2bc
000001f0: a65c 4b3e b3ca 11be 09d8 dcbd 88ed 5bbd
00000200: 098c cb3d cf99 67bc d062 4d3e 2611 80be
00000210: dae7 563e ae04 1fbd fe63 8cbd b5fa 1ebd
00000220: e02f 12be 7a90 a63e ab9b bb3c 8ab8 8d3d
00000230: 1bba fdbd a6d1 17be d38d 843e 7469 783c
00000240: 9f8e 263e cb32 193e 0fc2 14be 2a3b e4bd
00000250: 3f13 8bbd bac3 603d 2244 0ebd b45c 0cbd
00000260: a185 783e 8468 863e a934 a73c 5610 573d
00000270: 5c58 ab3d 3271 babd c8cc 53be b03f d2bd
00000280: 805c 4bbd cbd0 893d 30ee 6cbc c183 6c3e
00000290: 6226 20bd 25e1 a73c 08be 92be abbd 03be
000002a0: 9195 87bd ccd0 83be ac45 49be d026 b83e
000002b0: 3b8e 2f3e 5243 1bbe 2894 b63e d6da 94bd
000002c0: 9689 eabd 3e00 6dbe eec6 90be 6fd2 9abe
000002d0: e6e5 363e 6a5d 9dbd 4b54 52be 24c2 6f3e
000002e0: 9cf4 51be 6c52 04be 566b f93d b097 b03c
000002f0: 121e 42be d27b 2e3d 16f9 b1bd be86 033e
00000300: 518c 82be a3ec 8ebe 0cd1 553e af99 1e3e
00000310: ffac 42be d9b4 44be 4616 5abe 16af 4bbe
0.09576234 0.18554273 0.067654274 0.17080614 0.17995141 0.058178045 -0.09397601 -0.15040693
-0.09396739 -0.107205264 0.09303401 0.2581563 -0.20760867 -0.14314991 -0.029288268 -0.14858289
-0.1285473 -0.03346913 0.108178176 -0.08989567 0.08639813 0.051204782 0.08850143 -0.09570279
0.052022137 -0.1419696 -0.30041388 -0.28049707 -0.17877567 -0.03300943 -0.058609746 -0.1850496
0.1447127 0.041751493 -0.027360924 -0.048107035 -0.09025367 0.039746866 0.0064245733 -0.25623035
-0.14345461 -0.21582295 -0.028511535 -0.23496597 0.10688971 -0.10204307 -0.103396885 -0.021043193
0.01028093 0.23914728 -0.12671107 0.07435135 0.16094281 0.20728652 -0.06694495 0.10935077
-0.03431616 0.12793875 -0.06311921 0.07159568 0.065876745 -0.060080413 -0.02012375 0.067578435
-0.14039642 0.06370339 0.15400366 0.16686377 0.08421769 -0.2380931 -0.014519952 -0.2009321
-0.20113093 0.06616894 -0.08395179 0.17197557 -0.020862387 0.09392733 0.22705455 0.15264584
-0.03814289 -0.17885715 -0.06774438 0.11940617 0.19247305 -0.0011094332 0.11140637 -0.18780905
0.1083569 -0.17011893 -0.18763511 -0.157015 0.15030415 0.14147888 0.16380116 -0.11040478
-0.2216532 -0.015674088 0.16924998 0.15020552 -0.22909625 -0.08820649 0.10466539 0.15231971
-0.08389834 0.15888813 -0.14152028 -0.11914739 0.19672738 0.098397955 -0.25524637 0.030808376
0.16958809 -0.11163956 0.0654565 0.13602275 0.20951304 -0.07055462 -0.07499521 0.12784013
0.03346471 0.06802071 0.18349604 -0.027703525 0.19859561 -0.1423748 -0.10783393 -0.053693324
0.09938819 -0.014135792 0.20057225 -0.25013083 0.20986882 -0.038822822 -0.068550095 -0.03881331
-0.14276075 0.32532102 0.022901377 0.06919964 -0.123890124 -0.14826068 0.25889453 0.015161861
0.16265343 0.14960782 -0.14527152 -0.11144097 -0.0679078 0.05487416 -0.034732945 -0.034268096
0.24269725 0.26251614 0.020410853 0.052505814 0.083664626 -0.091036215 -0.20683587 -0.10266054
-0.04964876 0.06729277 -0.014461085 0.23097135 -0.039099105 0.0204931 -0.28660607 -0.12865321
-0.066203244 -0.25745237 -0.19655484 0.35967112 0.171441 -0.151624 0.3565991 -0.07268302
-0.11452024 -0.23144624 -0.2827677 -0.30238673 0.17861137 -0.07683833 -0.20539968 0.23413903
-0.20503467 -0.12922066 0.12178676 0.021556705 -0.18956783 0.042598553 -0.086900875 0.12844369
-0.25497678 -0.27914914 0.20880526 0.15488313 -0.19011305 -0.19209613 -0.21297559 -0.19891009

convolution_block3.0.bias f4 [10]
00000000: a2be 9f3c f0b9 a53c 5bca 10be 26b4 c4bd
00000010: 5911 093e 095d b5bd 79d7 983d 84cc 23be
00000020: b70b 9dbd d5a9 2e3e
0.01950008 0.020230263 -0.14139692 -0.09604673 0.13385524 -0.08855636 0.07462973 -0.15995985
-0.0766825 0.17056973

convolution_block3.2.weight f4 [10]
00000000: e47b 853f 28bd 813f 481b 7e3f 5fc7 723f
00000010: f0d8 6d3f cc24 7f3f 675c 863f 0f1a 823f
00000020: 5bc6 813f b78e 7c3f
1.0428433 1.0135851 0.9926038 0.94835466 0.92909145 0.9966552 1.0496949 1.0164202
1.0138658 0.98655266

convolution_block3.2.bias f4 [10]
00000000: 2df1 4a3d 8f80 11bd dc84 213d a0fc 48bd
00000010: 2de0 0b3d aabc 4cbd 3833 fcbc 9310 f9bc
00000020: 6371 cbbb 8f0f bc3c
0.04954641 -0.035522994 0.039433345 -0.049069047 0.034149338 -0.04998461 -0.030786142 -0.030403411
-0.006208585 0.022956638

convolution_block3.2.running_mean f4 [10]
00000000: a978 b03e 5af3 ef3e 5ea5 c63e 683e d03e
00000010: c717 823e 9b4a e43d 8eef 063f ac12 df3e
00000020: 7e26 1f3f 4ed7 bc3e
0.34467056 0.4686535 0.3879804 0.40672612 0.25408766 0.11147042 0.5270928 0.43568933
0.6216811 0.36883014

convolution_block3.2.running_var f4 [10]
00000000: 1b0a 213f 4b4a b53e d565 443e 0826 c73e
00000010: 7457 b13d bcd7 f23d 4405 a33e 0cb2 c73e
00000020: b76e 1140 c067 023f
0.62906045 0.35408244 0.19179471 0.38896203 0.086592585 0.11857554 0.31839955 0.39003026
2.2723825 0.5093956

convolution_block4.0.weight f4 [20, 10, 3, 3]
00000000: 19ce b93d 2b0b aebd 64d5 cfbd c3a2 8bbd
00000010: b71f 82bd c571 c73d 404e 203d 3b84 b33d
00000020: ab1f 25bd 499e aa3d c605 c53d 3fdb 973d
00000030: b641 bb3d 4219 f7bc 424b 163d 4411 ad3d
00000040: f309 8a3d 964d 4b3d b200 2abc 9458 b63d
00000050: c36d bb3d 5705 053d 762f b13d 38d8 093d
00000060: dc4c 853d 9ebc ac3d 4e8f 023d 65a5 d5bd
00000070: 984f 203d 1627 643c 9046 c0bd 3fa6 d7bd
00000080: d405 12bd 664d 04bd d22f a7bd f6f7 523d
00000090: febc bdbd 199c bebc eb18 ccbd 9ccf bdbd
000000a0: b908 6e3d 3097 333d 932b 2a3d b1be fd3c
000000b0: b453 6b3d a9b9 2dbd cb60 723d 9c75 143d
000000c0: 32b0 a2bc df9b 863c 43a2 a3bd ccc7 c4bd
000000d0: 8cfb 5f3d c354 34bd 761c 4ebb 2ec7 af3d
000000e0: 28f7 51bd ad15 f33c 0c25 96bc e830 96bd
000000f0: 0cb2 c0bd 9fb4 babd 1d06 bb3d a95b ba3c
00000100: f451 a1bd d344 8dbc 1510 aebb b1df 3b3d
00000110: ab81 603d 4a97 c73d 7bc4 8c3c 643b 84bd
00000120: a6dd 0bbd c016 0c3d 3b7d 89bd 4707 25bd
00000130: 7ef7 40bd dd71 bc3d 688c 113d f97a 463c
00000140: 92a2 793d 8648 a5bd dea6 14bd 0d8b efbb
00000150: 2553 a2bd 8f0d 273b 7a92 373c eaeb 543d
00000160: ff96 2e3d 62fd bbbd 3fe3 94bd bd94 673d
00000170: 2720 1fbc af44 b9bc 42ce 24bd e886 813d
00000180: 0169 77bd 752f ecbc 98fe 0e3e f8df 9fbd
00000190: 534d 3b3d 4cd0 9c3d 8f4e 763d 05c2 c93c
000001a0: cd4a 2fbd 3fd4 bdbd 8963 a1bd 8d5a 073c
000001b0: 7c96 2a3b b66b fd3c a0d9 af3d 7e7c e1bd
000001c0: ead2 75bd eb87 0abe 4432 2f3d 57d9 0bbe
000001d0: c05d 1dbe d7b5 83bd 761a bdbd 4312 5f3d
000001e0: 06d4 8fbd c3b1 29bd c6af 633d aa26 c4bc
000001f0: a41c 823d 485b 5b3c 1ba8 763d c81b af3c
00000200: decb 89bd a87d 24bd cfca ec3d 9258 debc
00000210: 5803 c73d a551 0d3d 7539 163d 2d95 40bd
00000220: 8342 903d d804 13bc cdef bebd f81a 823d
00000230: 62f5 1d3d 4e3e babc 4bc6 763d 3dea 89bd
00000240: 1a43 d7bd 238f 313c e343 e63c c34f 973d
00000250: d347 01be 851a 1e3d 1df3 6b3d ec1a 183d
00000260: 8da3 993b e189 fbbd 3c7e f63c 4867 073d
00000270: cc17 8c3d 836a a53d ea63 203c 021c fcbd
00000280: e9ab edbd a78b 16bd 0ab8 e33d 3078 4d3d
00000290: e18a 5ebb f2d1 73bd 8d99 fb3c 8373 2c3c
000002a0: 8052 a1bd 6faf bc3d bd58 5f3d 88db 27bc
000002b0: fea8 073c 9aee 10bd 50d0 a43d 1b15 963d
000002c0: 71b6 98bd 130d 36bd 7b6a 753d 05f8 0e3e
000002d0: 4480 573d 9c38 9dbc a3c7 f2bd 9afc 62bd
000002e0: 2297 00be c510 81bc d61c 7fbd 03b8 bdbd
000002f0: 1904 b8bd 3313 debd ddd5 d3bd f8d3 ebbc
00000300: 1dde 81bd 7398 c7bc c7a1 e83c 2bf1 c8bd
00000310: bec6 dd3d b5ed 40bc 0bd3 a8bc 4910 603c
00000320: 0cf8 bfbd f9f8 c9bd b82f 303c 261f 6cbd
00000330: 6e7c 92bd a952 ac3d 8f3a 79bd 1ab8 133e
00000340: 5e44 e83c 07db e23d 17b8 f33d c5a2 69bd
00000350: 76f0 1b3c 0b1b fbbb caa6 ca3c 9b3e 983d
00000360: edb1 aa3d 0597 453a dbe3 76bb d367 0f3c
00000370: 606c 4cbd bed5 5f3d 62f3 aebd c862 a23d
00000380: c2e4 81bd ae35 a9bc c6ba 3dbd 1dc3 05bd
00000390: e313 7b3c 437b 803c 8035 bbbc 7e2d 81bd
000003a0: 3548 8abd a121 1a3d 5986 13bd f1ab af3d
000003b0: 7b96 b53d d8ce ccbd a76f a83d 2dfa 83bd
000003c0: 1f0f 0fbd 9b24 5dbd f87e 43bd aad5 4c3d
000003d0: ba95 0d3d 0c3c adbc 0464 20bd 55d8 513d
000003e0: ada7 1dbd 7e5e 9abd 2840 4c3d 5cf0 b6bd
000003f0: 281d 183d 0a83 933d fed2 cbbd 9abb 653d
0.09072513 -0.08498224 -0.10148123 -0.06818154 -0.063537054 0.09738497 0.039137125 0.08765455
-0.040313404 0.08330972 0.09620242 0.07414865 0.09143393 -0.030163411 0.036692865 0.08450559
0.06740179 0.04963454 -0.010376142 0.08903614 0.09151795 0.032475796 0.086516306 0.033653468
0.065088004 0.084344134 0.031874947 -0.10431937 0.039138407 0.013925334 -0.09388459 -0.10529756
-0.03565009 -0.032300375 -0.08163418 0.051506005 -0.09264563 -0.023267793 -0.0996569 -0.09268114
0.058113787 0.043845356 0.041545462 0.030974718 0.057452872 -0.042413387 0.05917434 0.036244974
-0.019859407 0.016431747 -0.07989933 -0.09608421 0.054683253 -0.044026148 -0.003145007 0.085829124
-0.051261097 0.029673422 -0.018328212 -0.07333547 -0.0940896 -0.09116482 0.091320254 0.022748785
-0.078769594 -0.017244732 -0.0053119757 0.045867626 0.05481116 0.09745653 0.017183533 -0.0645664
-0.034146927 0.034201384 -0.06713339 -0.040290143 -0.047111027 0.09201405 0.035534292 0.01211428
0.060946055 -0.080704734 -0.03629195 -0.0073102773 -0.07926015 0.002549026 0.011204356 0.051982798
0.04262447 -0.09179188 -0.07269906 0.056538332 -0.009712256 -0.022615759 -0.040235765 0.063245595
-0.060402874 -0.028831223 0.13964307 -0.078063905 0.04572804 0.07656917 0.060133513 0.024628649
-0.042795945 -0.09268998 -0.07880313 0.008261335 0.0026029637 0.03093515 0.085864305 -0.11010073
-0.060015596 -0.13528411 0.042772546 -0.13657127 -0.15367794 -0.064311676 -0.09233563 0.054460775
-0.07022862 -0.041429292 0.055587552 -0.023944218 0.06353119 0.013388462 0.06021891 0.021375552
-0.06728338 -0.040158898 0.1156212 -0.027141843 0.09717435 0.03450169 0.03667589 -0.047017265
0.07043936 -0.008973323 -0.09323082 0.063528 0.038564093 -0.022734787 0.0602477 -0.067341305
-0.105108455 0.010837349 0.028108543 0.0738826 -0.12625055 0.03859951 0.057604898 0.03713505
0.004688686 -0.12282158 0.03008949 0.03305748 0.068404764 0.08076956 0.009789446 -0.123100296
-0.11605055 -0.036754277 0.11119087 0.050163448 -0.003395729 -0.05952639 0.030712867 0.010525587
-0.07877064 0.09213149 0.054527987 -0.010245211 0.008280037 -0.0353838 0.08047545 0.07328244
-0.07456673 -0.044446062 0.059916 0.139618 0.052612558 -0.019192033 -0.11854484 -0.05541668
-0.12557653 -0.015755067 -0.06228336 -0.09263613 -0.089851566 -0.10843506 -0.103435256 -0.028787598
-0.06341193 -0.024364686 0.028397454 -0.09811624 0.10828923 -0.011775424 -0.020608446 0.013675758
-0.09373483 -0.09861941 0.010753565 -0.057646893 -0.07152639 0.08414204 -0.06084686 0.14425698
0.028352913 0.110769324 0.11900347 -0.057039995 0.00951778 -0.007663136 0.024737734 0.07433816
0.08334718 0.0007537457 -0.0037672434 0.008752781 -0.049908042 0.0546472 -0.08542515 0.07928997
-0.0634246 -0.02065548 -0.0463207 -0.032656778 0.015324566 0.015683776 -0.02285266 -0.06307505
-0.06752054 0.037629727 -0.036016796 0.08577717 0.088665925 -0.1000039 0.08224421 -0.064442016
-0.03492653 -0.053989988 -0.04772851 0.050008453 0.03456662 -0.021146797 -0.039157882 0.0512317
-0.038489986 -0.07537554 0.04986587 -0.08932564 0.03713718 0.07202728 -0.09952353 0.056087114

convolution_block4.0.bias f4 [20]
00000000: c349 17bd d3fc 0a3d b5c0 7e3d c141 8a3d
00000010: 1f2c c1bd 439a b6bd 2dff 003e 58b5 d43d
00000020: ea26 b63d 329f 473d 1c69 a5bb e404 a23b
00000030: 14e8 cdbd 4ab0 c4bd 5898 fe3b fda6 d73d
00000040: 6076 823d b4d9 673d 18c0 a2bd 30a5 20bc
-0.03693558 0.03393252 0.0621955 0.06750823 -0.094322436 -0.08916142 0.12597342 0.10386151
0.08894141 0.048735805 -0.0050479304 0.0049444307 -0.10054031 -0.09603937 0.0077696256 0.10529897
0.063702345 0.056604102 -0.07946795 -0.009805009

convolution_block4.2.weight f4 [20]
00000000: 03cd 813f f92d 823f 66f8 7f3f cee7 7a3f
00000010: d9c8 7d3f bd7f 7c3f 95d6 763f ad96 803f
00000020: a5d2 7e3f 65b3 803f d908 7a3f 1fae 803f
00000030: 753a 7e3f d672 7e3f b482 813f 7ab9 823f
00000040: 9102 823f 86f9 813f d5dd 7f3f 2355 813f
1.014069 1.017028 0.999884 0.98009956 0.99134594 0.98632413 0.96421176 1.0045983
0.9954017 1.0054747 0.9766975 1.0053138 0.9930795 0.99393976 1.0118012 1.0212853
1.0157033 1.0154274 0.99947864 1.0104107

convolution_block4.2.bias f4 [20]
00000000: 1d4b 663a a96a 013c 0e04 e93b 78c9 58bb
00000010: 98cd 31ba f6f5 03ba 1ed5 2cbc a3fd 9aba
00000020: 2571 7fbb 032f 2c3c e1aa 793c 2360 47bc
00000030: 3b98 44bb 452d 32bb cbb4 de3b a512 bd3a
00000040: e954 3fbb 27c7 383b 03d2 7dbb 18e6 bb3b
0.00087849965 0.007898965 0.007111079 -0.003307907 -0.000678265 -0.00050339045 -0.010548858 -0.0011824857
-0.0038977352 0.010509255 0.015238495 -0.012168917 -0.0029997963 -0.0027187627 0.0067964545 0.0014425112
-0.0029194898 0.0028194876 -0.0038729913 0.0057342164

convolution_block4.2.running_mean f4 [20]
00000000: 5e4c 113f b1a1 8d3e f9c1 e03e d13f 213f
00000010: 79fe ba3e 1829 893e b66b 133f 7fa3 bf3e
00000020: aa69 dd3e 4d63 ef3e 30a4 923e 3fa8 863e
00000030: 91f1 e03e 668d ab3e 7499 263f 6151 0c3f
00000040: 7e86 f23e 0b44 483f 4667 4b3f 60bb 233f
0.5675715 0.27662423 0.4389799 0.62988 0.36522272 0.26789165 0.5758623 0.37429425
0.43244678 0.46755448 0.2864089 0.26300237 0.439343 0.33506316 0.650779 0.54811674
0.47368234 0.78228825 0.7945446 0.63957787

convolution_block4.2.running_var f4 [20]
00000000: 41cc 133f 28b9 673e d81d c33e 8fa6 2f3f
00000010: 9ef3 9a3e 79c2 173e c5bd e83e 1b37 7a3e
00000020: b750 a83e 2c23 ba3e 2f45 1c3e 3e77 c03d
00000030: a51c 4d3f 9c91 3e3e 3648 5a3f ac2e 563f
00000040: c672 883e 9a69 f43f b678 823f f6df bf3f
0.5773354 0.22629225 0.38108706 0.68613523 0.3026399 0.14820279 0.45457283 0.24435084
0.3287408 0.3635496 0.15260766 0.09397744 0.80121833 0.18610233 0.85266435 0.83664966
0.26650065 1.9094727 1.0193088 1.4990222

convolution_block5.0.weight f4 [32, 20, 1, 1]
00000000: 8147 25bd 5905 403e 72e3 35be cb5c e7bd
00000010: e87e e5bd 1764 4ebe 24a6 5ebe ed8e df3c
00000020: 457a 4a3e fc46 de3b 7bee e0bd be2c ac3d
00000030: 8658 b5bd a95f a53d eaef bb3d fd3f ecbd
00000040: d6c4 a93d 8bf7 18be a0e7 1d3e d7e2 01be
00000050: 70c2 ae3c 4d7d 0d3e af27 273e f6ba 2bbe
00000060: 0dee b2bc 4840 b43b 0661 033e 5870 87bd
00000070: f75a 52be b0f9 0ebd 7a7e 2cbb 9bc7 023b
00000080: dae7 a7bc 999a 153d f852 5d3e 8ae8 ebbd
00000090: efa3 e73d a3ad 36be b9cd 0b3d 450e 153d
000000a0: 8422 15be 980b 2ebe e066 40be 9dd9 d53d
000000b0: c689 a63d 0b88 55be 55ee 443e f4e8 173d
000000c0: a367 093e ad88 55be 72c3 4bbe c210 803d
000000d0: f155 e43d dace 243d 6376 2bbe a26e 5dbe
000000e0: fed7 533d 679f 4bbe ef38 5d3d 445d a53c
000000f0: 0f42 4c3e 1512 05be 3dab e3bd df18 4fbe
00000100: 240b b3bd bf4f 363e 8cd4 423e 2a30 68bd
00000110: 5053 e13d 5ea3 a93d dea1 47be a222 f5bd
00000120: b943 ac3d d9b4 8dbd feda 01be 4eb3 083d
00000130: 8f50 42bd 3615 77bc 82a2 ddbd d9fe 73bd
00000140: 8ffd 76bd cc8a 383e 5545 3fbe f722 a53d
00000150: cfb4 c8bd abe8 4f3a 4405 a9bd 8ee9 373e
00000160: 9552 4fbe c868 da3d 609b b1bd 277b 933d
00000170: 7215 583e 0733 3cbe d956 133e ece2 37be
00000180: 54dd 4f3e f711 c6bd e55f 93bd af12 a5bd
00000190: 7a6c f23d 8770 283e 19a5 febb 277a f53b
000001a0: 1e45 edbd 9f19 523e 0789 ccbd 283a 3d3e
000001b0: 7741 4bbe 8c58 3cbd 5bcb 3e3e c55b 65bc
000001c0: ab40 13be e67d 3f3e 0c54 2d3e 9de9 033e
000001d0: e005 e83d 87e9 55be e9f8 80bd d0e6 b1bc
000001e0: cae2 603d 004f 163e 117e efbd 04bb 09be
000001f0: 9cd8 86bd 8307 33be b11c 2ebe 24cb 233e
00000200: f4a4 eebd e343 013e 3eaf 49be b489 e63d
00000210: c172 2b3e 2034 053d 6378 59bb 706f 74bc
00000220: 7dd3 563d 7aee 25bd c7d5 293e 062b 37bd
00000230: 7a51 f8bd 6278 5ebe 1327 2ebb 78c9 513e
00000240: 332b 5c3e f7dd 7f3d 1f6f 61be a31e 9c3d
00000250: ac2e 40bd 5150 d33d de4e 4abe 9bd0 623e
00000260: 19ae 3e3d c6fa d3bd 3c31 873c 2b28 65bd
00000270: 5b59 423e 57a2 65be ba14 bd3c dcea 2d3c
00000280: bd6c 323e 20d3 0bbe 8643 223d ff10 cdbd
00000290: 009d f9bb d64d 5bbe 5269 aabc 2d98 c83d
000002a0: 6e9a cd3c 28e9 193d 8b85 503e cbac acbd
000002b0: 56e0 48be 38c7 3f3d 2646 3ebe fbf7 4bbe
000002c0: 9022 f73d 8d65 24bb e3f2 083e b0d1 42be
000002d0: 27b0 56be 06ff 403e 39d9 673e a9b2 bd3d
000002e0: c9fe 403e f8c5 f3bd 2c9c 8b3d 3028 3b3e
000002f0: 1025 3ebe 0821 e73d f187 a0bd 986d 5d3e
00000300: c3c4 113d 6be3 c23d 042f 573c dbde 2e3e
00000310: fe9e 4a3e fa22 ac3d c65d 623e 2542 333e
00000320: 6c4e 1abe 877e 1abe b043 f3bd c07f 54be
00000330: 3342 1b3e 598a 5cbe 4d36 efbd cebb 74bd
00000340: 5652 11be 1752 4d3e b149 70bd d996 e4bd
00000350: 92a5 073e a3d7 bb3d a44e 1d3d d859 39bc
00000360: 0424 41be 1516 9f3d 7c89 8b3c 3fc0 9a3d
00000370: e02b bdbd fa89 643e abd1 073e 6e4a 24be
00000380: 4912 05be 9436 46be 4100 203d ff13 c3bd
00000390: 4cb0 30bd 04fb 1bbe 6574 cb3d 98b4 cd3c
000003a0: 37a2 8a3c 73ad 223e b44a 593e a3fd 1f3e
000003b0: 8b8b 66be 5a3b 27bd 1eae f43b 8520 54be
000003c0: aefa 1f3a 9fb9 aabd e652 0dbe 7e48 03be
000003d0: efd0 21be b926 dd3d f145 abbd b9b2 343e
000003e0: 6ab1 ea3d 09d9 71bd 270f a23d f2de 42bd
000003f0: b6d7 65bb c6b0 0d3d 1bc6 43be 9927 193e
-0.040351395 0.1875204 -0.17762545 -0.11296996 -0.11205846 -0.20155369 -0.21743065 0.027289832
0.19773205 0.0067833643 -0.109829865 0.084069714 -0.08854775 0.08074886 0.09176619 -0.11535642
0.082894966 -0.1493818 0.15420389 -0.12684189 0.02133295 0.1381733 0.16323732 -0.16770539
-0.021842027 0.005500827 0.1282998 -0.06613225 -0.20542513 -0.03490609 -0.0026320503 0.00199554
-0.020496298 0.03652439 0.21613681 -0.11518963 0.11310565 -0.17839675 0.03413174 0.03639056
-0.14563948 -0.1699661 -0.18789244 0.10441897 0.08131747 -0.20852678 0.19231541 0.037087396
0.1341844 -0.20852919 -0.19898775 0.06253196 0.111492045 0.04023633 -0.1674438 -0.21624234
0.051719658 -0.19885026 0.054009374 0.020186074 0.19947074 -0.12995179 -0.111166455 -0.20224331
-0.08742359 0.17803858 0.19026393 -0.056686558 0.11002219 0.08283113 -0.19495341 -0.11969496
0.084113546 -0.069192596 -0.12681195 0.033374123 -0.047440108 -0.015080741 -0.108220115 -0.059569214
-0.060300406 0.18021697 -0.18678792 0.0806331 -0.098001115 0.00079310936 -0.082529575 0.17960188
-0.20246346 0.10664517 -0.086722136 0.07201224 0.2110193 -0.1837884 0.14388599 -0.17957658
0.20299274 -0.09671395 -0.07196025 -0.08060204 0.118370965 0.16449176 -0.007771146 0.0074913683
-0.11585449 0.20517586 -0.099870734 0.18479216 -0.19849192 -0.045982882 0.18632261 -0.01399893
-0.14380138 0.1870037 0.16926593 0.12882085 0.113292456 -0.20889865 -0.06297476 -0.021716505
0.054903783 0.14678574 -0.11693967 -0.13450247 -0.06584284 -0.17483334 -0.17003132 0.15995461
-0.11652556 0.12623553 -0.19695756 0.112567335 0.16742994 0.032520413 -0.0033183328 -0.014919147
0.052447785 -0.040510632 0.16585456 -0.044718765 -0.121249154 -0.2172561 -0.0026573583 0.2048701
0.21500854 0.06246754 -0.22015046 0.07623031 -0.04691951 0.103180535 -0.19756648 0.22149889
0.04655275 -0.103505656 0.016502969 -0.05594651 0.18979399 -0.22425209 0.023081172 0.010615077
0.17424293 -0.13654757 0.039615177 -0.100130074 -0.007617593 -0.21416411 -0.020802174 0.0979465
0.025098052 0.03757587 0.20363443 -0.08431395 -0.19616827 0.04682085 -0.18581447 -0.19918816
0.12067139 -0.0025084943 0.13373904 -0.19025302 -0.20965634 0.18847284 0.22641458 0.09262592
0.18847193 -0.11902994 0.06816897 0.18277049 -0.18568826 0.11285597 -0.07838429 0.21623838
0.035588037 0.09516033 0.013133768 0.170772 0.19787213 0.08405109 0.22106084 0.17505701
-0.15068978 -0.15087329 -0.11878145 -0.20751858 0.15161972 -0.2153715 -0.11680279 -0.059749417
-0.14191565 0.20050846 -0.058664028 -0.111615844 0.13246754 0.09171989 0.038405076 -0.011312924
-0.18861395 0.07767884 0.017033331 0.07556199 -0.09236884 0.22318259 0.13263576 -0.16044018
-0.12995256 -0.19356757 0.039062742 -0.09525298 -0.04313688 -0.15232474 0.0993431 0.025110528
0.016923053 0.15886478 0.21219903 0.15624098 -0.22514169 -0.040828086 0.0074670454 -0.2071553
0.0006102723 -0.08336186 -0.13801154 -0.12820622 -0.15802358 0.107984014 -0.0836295 0.17646302
0.1145962 -0.05904487 0.07913046 -0.0475759 -0.00350712 0.034592412 -0.1911854 0.14956512

convolution_block5.0.bias f4 [32]
00000000: 9238 b83d b81b 523e 3b69 1f3e f338 833d
00000010: 19c0 073d eca1 393e 3b4d 16bd 87b2 3a3e
00000020: f737 3cbd 8c0f e83d 9080 43be 5fe4 d13d
00000030: e22f 72be a1f4 a5bc dea8 87bd 1854 8c3c
00000040: 1c84 0a3e 5b58 783d cbca 97bc c241 dcbd
00000050: 0acb 9a3d 2dc8 433d 1040 003e 3654 bcbc
00000060: bf81 5c3e 05dd 57bd b80b b13d 7a39 663e
00000070: cdc1 b8bd 8b95 15be 1a64 63be 9fce 28be
0.08995165 0.20518386 0.15567486 0.064073466 0.033142183 0.18128175 -0.036694746 0.18232165
-0.04595181 0.1133109 -0.19092011 0.102486365 -0.23651078 -0.02025825 -0.06624006 0.017129943
0.13526958 0.060631137 -0.018529316 -0.1075473 0.07558258 0.047798324 0.12524438 -0.022989374
0.21533869 -0.052701015 0.08644813 0.22482863 -0.090213396 -0.14607827 -0.22206154 -0.1648507

convolution_block5.2.weight f4 [32]
00000000: 3c07 833f 11f0 7f3f d4d9 7c3f 137e 803f
00000010: c3e8 803f 5004 803f e9f7 7e3f bfad 7e3f
00000020: 7203 803f f1e5 7d3f c681 7e3f 935c 803f
00000030: b9ee 7c3f fced 7e3f f897 803f 7574 803f
00000040: 0268 7e3f 2d8f 803f 8f41 7f3f d23f 7e3f
00000050: 0e22 803f b13b 803f 8567 7e3f 18ad 803f
00000060: 2bb8 803f 3c24 813f b309 803f badf 813f
00000070: d83f 813f 0e6d 7d3f 05aa 7e3f 7fae 7d3f
1.0236583 0.9997569 0.9876988 1.0038475 1.0071033 1.0001316 0.9959703 0.99483865
1.0001051 0.9917899 0.9941677 1.0028251 0.9880176 0.99581885 1.0046377 1.003554
0.99377453 1.0043694 0.9970941 0.9931613 1.0010393 1.0018216 0.9937671 1.0052824
1.0056204 1.0089183 1.000296 1.0146401 1.0097609 0.9899453 0.9947818 0.99094385

convolution_block5.2.bias f4 [32]
00000000: ece4 74bc cbf2 bebb 1094 1fbc b808 213c
00000010: 2504 a2ba 1200 1dbc c655 1dbc e1c6 6dbc
00000020: b5f5 1fba 0a2f 3a3a baf3 1a3c 5438 31bb
00000030: e59c ef3b c4e6 dfba aa0b 17bc 7aaa 8fba
00000040: a48a 033c dcba dbbb 7a73 11bc bd07 ec3a
00000050: dead 223c 6322 c7bb c702 b9bb 6681 733c
00000060: efbe 833b e827 523c 6c89 4c3c b8b8 2fbc
00000070: 8579 05bc 158d ec3b 6034 633b cb81 623a
-0.014947157 -0.005827283 -0.009739891 0.009828739 -0.0012360854 -0.009582536 -0.0096029695 -0.014512748
-0.0006101982 0.0007102346 0.009457523 -0.002704163 0.0073124045 -0.0017082323 -0.0092190895 -0.001096084
0.00802866 -0.006705625 -0.008877629 0.0018007677 0.0099291485 -0.0060770973 -0.005646083 0.014862394
0.004020564 0.012826897 0.012483936 -0.010725193 -0.008146648 0.0072189667 0.003466867 0.00086405565

convolution_block5.2.running_mean f4 [32]
00000000: 7ab9 f33e e103 9d3e 7f03 b93e 5e25 763e
00000010: ab07 123e 4e4f b03e 7fd5 633e c5e9 c73e
00000020: b21a 813e b29d b23e dc70 573e 5415 2f3e
00000030: 3c27 1d3e 9a47 083e 8e67 a83e 6669 983e
00000040: b8c2 983e 9d27 5c3e 21e7 543e b2a7 813e
00000050: ed93 ad3e 59d3 733e 0223 a13e 14f4 cf3e
00000060: 7462 b93e ee6e ac3e f1fa 563e f50f a73e
00000070: e768 773e 8ea7 d03d 712e a73d e2ca bb3d
0.47602445 0.30667022 0.3613548 0.24037692 0.14260738 0.34435505 0.22249411 0.3904554
0.2521568 0.34885937 0.21039146 0.1709798 0.15346998 0.13308564 0.32891506 0.29767913
0.2983606 0.21499486 0.20791294 0.25323254 0.3390192 0.23811091 0.3147202 0.40615904
0.36207926 0.33678383 0.20994164 0.32629362 0.24161111 0.101882085 0.08163155 0.09169556

convolution_block5.2.running_var f4 [32]
00000000: 620f b33e c7c9 d33d 29d6 0f3e 6ade 913d
00000010: 536e 113d 5b4e 333e d7ac 863d c2b6 083e
00000020: 4853 8a3d 9112 583e 069a 293e 7cc4 3a3d
00000030: 3791 053e 0084 153d 0623 393e 1b11 f13d
00000040: 605a bb3d f030 003e 219f c33d d145 3a3e
00000050: 504e 973e 77d7 df3d cd11 243e 5741 db3e
00000060: 49e7 473e a5d6 7b3e 652d b13d 4e35 e13d
00000070: d288 233e 3d73 103d cc2a 083d 6222 143d
0.34972674 0.1034122 0.1404654 0.071225 0.035505604 0.17510359 0.06575935 0.13350967
0.06754166 0.21100833 0.16562662 0.04559754 0.13043676 0.036502838 0.18079767 0.11770841
0.09148097 0.12518668 0.09551836 0.18190695 0.29551935 0.109297685 0.16022415 0.42823288
0.19521822 0.24593599 0.086512364 0.10996495 0.15970162 0.03526615 0.03324394 0.036165603

convolution_block6.0.weight f4 [10, 32, 3, 3]
00000000: 3b87 8f3c 4dd9 ecbc c162 86bb b148 063d
00000010: 6be1 cc3a be5c b2bd 961e 60bd def7 68bd
00000020: ea0e 72bd d9f8 ae3d f3b9 16bc 4aab 033c
00000030: 383d 6dbc b023 483d 635d 96bb 9335 e43c
00000040: 1a07 9b3d 87cd ab3c ace8 813c 08be 15bd
00000050: 280c 733c 2fb3 3e3d d033 62bd dd61 6f3c
00000060: 75a0 0c3b 4409 4fbd 86eb 21bd 2d2a 883d
00000070: 206a 0a3d 910b 193d ef07 b13d 9a85 be3d
00000080: e0a0 c6bc 262d 0e3b b46f 07bc 8ff7 923d
00000090: cb78 8e3d fc7d a63d a540 c5bc 79a5 323d
000000a0: 4303 863d aaa0 e1bc eb3a 9c3a 9da1 0f3d
000000b0: c9e5 b13c 8c63 cb3c 7a31 03bd 24b2 d9bc
000000c0: 5282 2a3d 83d5 aabc 1a92 9dbd a306 293d
000000d0: a727 a5bc fa07 80bd 0d0b 413c bca1 32bd
000000e0: a3a2 093d 2d91 1a3d 7a87 85bd ea21 d9ba
000000f0: bd1f f5bc 6a1b cd3c 179b ccbc 66ad d6bc
00000100: 650e e1bc 7d1a 673c fedf 373d 29f0 19bd
00000110: b6dd f23c 7040 d7bb 11ab 423c a38e 4b3d
00000120: b57f 40bd 0e48 f93b 7a17 85bd 9cdc 1ebc
00000130: cc45 8ebd 306a a3bd 2065 79bd e028 c23c
00000140: cbe1 653c d7d3 92bd 486c acbc 5c19 11bc
00000150: 777d 1abd 4cb1 05bd 849f 0fbd d641 84bb
00000160: 64f8 71bd 87fd 233d 75cf 92bd 0fe8 0e3d
00000170: d4c5 ccbb 69c1 0ebd 4b46 94bc f32c 02bd
00000180: 1d04 10bd ae50 3bbd 1584 093d a497 87bd
00000190: ca21 213d 0f2a 163d 5f09 afbc f16e 993b
000001a0: 3836 073d 646f a8bc 19a2 41bd ed4d 8e3d
000001b0: eef9 353c f395 943c c026 b83c 47c9 af3c
000001c0: 4006 01bd 8d82 0e3c 41fd 4a3d a12c 30bd
000001d0: 397a a13c 45eb 803c b0d3 6c3d 8007 30bc
000001e0: 2250 9b3c 640f 783d f045 71bc 9003 6f3d
000001f0: e020 d5bc fe2d 0d3d 6e1f 5e3d 17c2 d53c
00000200: ea34 e0bc 8975 fabb db93 fe3c 8cc7 1e3d
00000210: 1a0c b43d 94c2 b53c 7ff4 9d3c 6470 1b3d
00000220: 31e0 e1bc f8ae f3bb 2b0e 7bbd c556 7d3c
00000230: 4b64 233d 0fe8 51bd 6380 5bbc 3e7f 853d
00000240: 284e d8bc f201 5f3d 8d24 bebc 4672 343c
00000250: 4b2a 733c 353e 193d 59fd d13c 67ca 3e3d
00000260: 88c0 fabc be57 82bc 25aa 0d3b 2edd b33c
00000270: 8e1f 8b3c 6af9 a7bc 12f2 803a 6abd 56bc
00000280: 8146 65bd 7a19 82bc 093f 1a3c 050d 713c
00000290: b871 4fbd e4c9 2f3d 9b47 a4ba c56e 5b3d
000002a0: 6cee 8ebc f29c 5e3d 0aba e63c daf5 17bd
000002b0: e74d a73c 21ae ce3c be30 5bbd e6b1 b1bc
000002c0: ca9d 33bd 9590 8b3c 56fb 8abc 4f3e 3e3c
000002d0: 6ea8 5fbd 0ba8 e8bb f06b 98bc f355 b6bb
000002e0: 47cf 173c 9ae2 413d 0feb 59bd bc78 93bc
000002f0: 3eae e13c f5c3 e7bc 4411 2d3d 6050 55bd
00000300: 12d0 973c a697 d8bc fdae 8b3b b632 5ebd
00000310: 10a5 dcbb 5789 21bd 752b 1bbd 1e2b 55bd
00000320: 9c93 47bc 1e16 0e3c a32e 963c 2059 303c
00000330: edfb 38bc 5c65 6dbd bf46 dd3c f59c aebd
00000340: d74e f93a 29e3 d6bb 49d3 3ebd afa8 e4bc
00000350: 4aae 4cbb cee6 9abd 508b 7bbd 2e1c 1b3d
00000360: 9f36 853c 374d ff3c 4094 e63b babf 55bd
00000370: f070 2a3d b554 18bc f858 113a b949 28bd
00000380: ff51 91bd 9e49 53bd 61dc 753c bc02 64bd
00000390: 949a 4dbd 2488 41bd 05da 7b3d 3517 4bbd
000003a0: 65bc 883c 29e1 5cbd a359 2ebc b29a afbc
000003b0: 3f8c 053d 6f9b 5c3d 9893 0e3c 83e1 8c3d
000003c0: f6da ef3b ff68 a6bc 701a a33d 53b6 c9bc
000003d0: 1aaf 61bd ef31 46bc 8852 7cbc 954e 673d
000003e0: 36c7 37bd c5e1 22bb d8be 303d 9f3b 743c
000003f0: 7956 0abd 9461 4abc 6e12 01bd 2236 13bd
0.017520538 -0.02891221 -0.004101128 0.032784168 0.0015631145 -0.087090954 -0.05471667 -0.05687701
-0.059096254 0.08543558 -0.009199607 0.008036444 -0.014479928 0.04886216 -0.0045887693 0.027857577
0.07569714 0.020972027 0.015858017 -0.03655818 0.014834441 0.0465576 -0.055225194 0.014610735
0.0021457945 -0.050545946 -0.039531253 0.066486694 0.033792615 0.037364546 0.08644091 0.09302826
-0.024246633 0.002169439 -0.008266378 0.07176124 0.06956633 0.08129498 -0.024078676 0.04361484
0.06543591 -0.02754243 0.0011919414 0.035066236 0.021716015 0.024827741 -0.032029606 -0.026574202
0.04162819 -0.020853763 -0.07693882 0.041266095 -0.02016051 -0.062515214 0.01178242 -0.043611273
0.033602368 0.037736107 -0.06519981 -0.0016565893 -0.02992236 0.025037486 -0.024976296 -0.02620573
-0.027472684 0.014105436 0.04489135 -0.03758255 0.029646736 -0.006568961 0.011881606 0.049696576
-0.04699679 0.0076074665 -0.064986184 -0.009696152 -0.069469064 -0.07979238 -0.060887456 0.023701131
0.014030884 -0.071693115 -0.021047726 -0.008856144 -0.03771731 -0.032639787 -0.035064235 -0.0040361686
-0.059074774 0.040036704 -0.071684755 0.034889277 -0.006249169 -0.03485242 -0.018099925 -0.03178115
-0.035160173 -0.04573124 0.03357323 -0.0662072 0.039338864 0.036661204 -0.021366773 0.0046824147
0.03301069 -0.020560928 -0.04727373 0.06948457 0.011106951 0.018137908 0.022479415 0.021458281
-0.0315001 0.008698118 0.049557928 -0.04301131 0.0197116 0.015737185 0.05781907 -0.010743976
0.018959109 0.060561553 -0.014726147 0.058353007 -0.026016653 0.03446769 0.054229192 0.026093526
-0.027368981 -0.007643406 0.031076362 0.03876452 0.08791371 0.022187509 0.019281624 0.03794898
-0.027572723 -0.0074366294 -0.06129281 0.015462582 0.03989057 -0.0512467 -0.013397309 0.0651841
-0.026404455 0.054445215 -0.023210788 0.011013573 0.014841626 0.03741284 0.0256335 0.046579745
-0.030609384 -0.01591098 0.0021616307 0.021956053 0.01698282 -0.020504672 0.0009837768 -0.013106683
-0.05597544 -0.015881289 0.009414443 0.014712577 -0.05064556 0.042917147 -0.0012533547 0.053572435
-0.017447673 0.054348893 0.028164882 -0.037099697 0.020422889 0.025229516 -0.05351328 -0.021691274
-0.04385165 0.017036716 -0.01696555 0.011611535 -0.054603986 -0.0071001104 -0.018606156 -0.005564445
0.009265727 0.047335245 -0.053202685 -0.018001907 0.027548905 -0.028291682 0.042252794 -0.052078605
0.018531833 -0.0264395 0.0042628036 -0.05424758 -0.006733544 -0.039437618 -0.03788324 -0.052043073
-0.012181189 0.008672265 0.018332785 0.010763437 -0.011290533 -0.057957992 0.027011273 -0.08526031
0.0019020688 -0.0065578413 -0.046588216 -0.027912466 -0.0031231814 -0.07563554 -0.061412156 0.03786867
0.016261397 0.031164749 0.0070367157 -0.052184798 0.04161161 -0.0092975395 0.00055445684 -0.041085932
-0.07095718 -0.05158388 0.015006156 -0.05566667 -0.050196245 -0.047248974 0.061487217 -0.04958268
0.016691396 -0.053925667 -0.010641488 -0.02143607 0.032604452 0.05385917 0.008702181 0.068789504
0.0073198033 -0.020313738 0.07964027 -0.024623072 -0.05509863 -0.012096866 -0.015400536 0.056471426
-0.044867717 -0.0024853807 0.043150753 0.014906793 -0.033773873 -0.012352366 -0.031511717 -0.035940297

convolution_block6.0.bias f4 [10]
00000000: cf1b 253d 267e e3bc 75a1 31ba 49ef ec3c
00000010: 23ff 683d b952 b73c db23 0a3b 892d c4ba
00000020: 8873 0abd ac1e 47bc
0.040309723 -0.027770113 -0.0006776073 0.028922694 0.056883942 0.022378312 0.00210785 -0.0014967184
-0.033801585 -0.012153309

convolution_block6.2.weight f4 [10]
00000000: 6bdd 7c3f c86b 7c3f 43dd 803f 6df0 7d3f
00000010: db02 7e3f 4cdf 803f 95dd 7b3f d371 813f
00000020: ad90 803f fb87 823f
0.98775357 0.9860196 1.0067524 0.99194986 0.9922311 1.0068145 0.9838498 1.0112861
1.0044152 1.0197748

convolution_block6.2.bias f4 [10]
00000000: cdca 97bc 46c3 59bc a8bb 1cbb 39a3 133c
00000010: 068f 823c d745 d8bb 99e4 48bc ff9d 923b
00000020: be9d 8abc 2523 483c
-0.01852932 -0.013291186 -0.0023915563 0.009011083 0.01593734 -0.0066001224 -0.012261533 0.004474401
-0.01692092 0.01221541

convolution_block6.2.running_mean f4 [10]
00000000: 425c 163f 3b08 cd3e b68f dc3e 2e92 923f
00000010: 7f46 813f 5441 983e 060d 0e3f 3207 2b3f
00000020: eacf 0b3f 7885 793f
0.58734524 0.40045342 0.43078393 1.145086 1.0099639 0.2973734 0.5548862 0.66807854
0.54614127 0.9746928

convolution_block6.2.running_var f4 [10]
00000000: 3a73 3d3f 73b6 e53e b99f a03e 1851 2740
00000010: b4c2 cd3f 29e1 3b3e 79d2 5e3f 6b8b 503f
00000020: e521 5d3f 685b 1740
0.74003947 0.4486576 0.3137186 2.6143246 1.6075044 0.1834761 0.87039906 0.81462735
0.86379844 2.364954

convolution_block7.0.weight f4 [10, 10, 1, 1]
00000000: ba6c 523d 40dc 33be b3d2 5b3e 6073 043e
00000010: 87de 073e d7ed 29be 1d11 273e b0c9 a0be
00000020: d43d 8ebe d2f2 28be 5e25 3bbd 8def 4abe
00000030: 0c69 40be fdec 97be cd0b 893e f004 d13d
00000040: 6a57 1ebd ad72 59be ad53 90be f35b 87be
00000050: 34a9 963c 866c 74bc b2f2 58bd f0e9 9cbe
00000060: 7693 40be 8e3d 09be d9a7 a9bd 8ccb f83d
00000070: 9c97 5b3e fb6a 08bd 410d 56bd 961d 2abe
00000080: 214f 66be fca3 8ebe d42c 99bc 9d1a 7dbd
00000090: bb68 16bc 7a58 913e 8f3c e13d b499 dd3c
000000a0: e088 8cbe 8d0a 803d 295f 193c db75 923e
000000b0: 9d7e 973b 8878 333b c9e7 ab3d 7ca6 9b3e
000000c0: e9a9 1fbe 023f 963e 3f51 413e 40c7 823d
000000d0: b91f 45be d842 e6bc 7060 35be f57a 8a3c
000000e0: 3dca 84be 256d ca3d 37fc 953c 8e41 11be
000000f0: 5b81 70bb d9a4 223e d2ac 043d ed1f cbbd
00000100: 5e29 93bd 8f0e 853e 7861 86bd 006e 093c
00000110: 6e31 fabd 5062 18be 09fa d7bd 097a 1a3e
00000120: 944f a2bd d1b9 88bd 11a8 fdba 23db 473e
00000130: 42d8 ce3d dad5 94be dad0 babd a65b a4be
00000140: f48f 80be 93b9 3bbe 66bc ddbd d714 a8bd
00000150: 89fc 393e 28ba 34bd 6819 7bbe 9b84 a63d
00000160: b0bc 41be 8b51 7f3e 9d4a 80be faff 4cbd
00000170: 693b 443e 4871 25be ea41 a63d 299d 783e
00000180: 1cbb 5bbe 6c0a 923e 5d6a af3d 0f95 6cbe
0.05137322 -0.17564487 0.21467094 0.12934637 0.13268481 -0.16594635 0.16315122 -0.31403875
-0.27781546 -0.16498879 -0.045689933 -0.19817944 -0.18790072 -0.29672995 0.26766816 0.1020602
-0.038657583 -0.21235152 -0.2818884 -0.2643734 0.01839123 -0.014918452 -0.052965827 -0.3064723
-0.18806252 -0.13402387 -0.082839675 0.121481985 0.21444553 -0.03330515 -0.052258734 -0.16612849
-0.22491123 -0.27859485 -0.018698134 -0.06179296 -0.009180243 0.28387815 0.10997879 0.02705083
-0.27448177 0.062520124 0.009361067 0.28605542 0.004623248 0.0027385075 0.08393819 0.30400455
-0.1559216 0.29344946 0.18878649 0.0638566 -0.19250382 -0.028108045 -0.17712569 0.016904334
-0.25935546 0.09884099 0.018308742 -0.14185163 -0.0036698196 0.15883197 0.032391377 -0.09918199
-0.071856245 0.2598767 -0.065615594 0.008388042 -0.12216459 -0.14881253 -0.10545737 0.15085615
-0.079253346 -0.06676067 -0.0019352456 0.19517188 0.10099842 -0.29069406 -0.091218665 -0.32101172
-0.25109828 -0.1833251 -0.1082695 -0.082071 0.18162741 -0.044122845 -0.2452141 0.08130761
-0.18919635 0.2493345 -0.25056925 -0.050048806 0.19163288 -0.16156495 0.08118041 0.24278702
-0.21458095 0.28523576 0.08565209 -0.23103736

convolution_block7.0.bias f4 [10]
00000000: d22e 8dbd 6fac 923e d376 893e 9074 863e
00000010: acee c23d 36dd 9f3d 17bd f8bb d613 9c3e
00000020: fd71 403e 087b 843b
-0.06893696 0.2864718 0.26848468 0.26260805 0.09518179 0.078058645 -0.0075909006 0.30483884
0.18793483 0.004042987

convolution_block7.2.weight f4 [10]
00000000: 686e 823f 4828 7d3f 7124 823f 6a07 813f
00000010: aa7d 803f 3d05 7f3f dd95 793f 2bbb 7e3f
00000020: d8b2 803f 865b 7d3f
1.0189943 0.9888959 1.0167371 1.0080388 1.003835 0.9961737 0.974943 0.99504346
1.0054579 0.9896778
